test/0.pt (torch_old, 111500 bytes, 6 tensors)

negotiation_nn.weight f4 [4, 12]
000000 01 af 68 be 70 2a 12 3e 3a b1 81 be bc 0c 6c be
       -0.22723009 0.14274001 -0.25330526 -0.23051733
000010 0d fa ec 3d 1c 94 9e bd f4 52 c4 3d ed 50 86 be
       0.11571131 -0.07743093 0.095861346 -0.26233616
000020 15 b4 3f be 38 35 65 3d 2e 2b 7a be dc 87 c4 3d
       -0.1872104 0.055958956 -0.24430534 0.095962256
000030 a0 72 7d bd 88 ee aa 3d fe dc a8 3d 81 1a 85 be
       -0.061876893 0.083462775 0.08245276 -0.25996783
000040 00 00 62 3e d9 88 13 be f8 f2 7b 3d cc 14 f1 bd
       0.22070312 -0.14407672 0.06151101 -0.11771545
000050 1b 5f 50 be c0 89 a8 3c 95 34 a9 3d 38 63 5d 3d
       -0.2034878 0.020573497 0.08261982 0.0540497
000060 20 9b 1c 3d e4 72 8b 3d eb a5 7a be dc c0 3f 3e
       0.038233876 0.06809023 -0.24477355 0.18725914
000070 c6 a0 4f be d4 4c 4f be 00 02 78 ba 20 be 5a 3e
       -0.20276174 -0.20244151 -0.0009460747 0.2136159
000080 9a be 6c 3e a0 e3 e5 3d 58 3a d6 3c fa f6 8a 3e
       0.23119584 0.11225057 0.026150867 0.27141553
000090 e8 ef 85 be 8a 97 71 be e1 7f e6 bd 2a a7 2a 3e
       -0.26159596 -0.23592964 -0.1125486 0.1666533
0000a0 17 44 9f bd c0 49 ab bc 10 da 6d bd 00 cf c9 bb
       -0.07776659 -0.02090919 -0.05806929 -0.0061587095
0000b0 42 03 07 3e c0 53 91 3e 50 28 ba bd 1a 6d 7d be
       0.13184837 0.2838421 -0.0908972 -0.2474865

negotiation_nn.bias f4 [4]
000000 51 83 a0 bc 31 68 8d bd 2d 0f 4b bc fb 34 63 3d
       -0.019593867 -0.069046386 -0.012393755 0.055470448

obs_nn.weight f4 [4, 9]
000000 08 b5 1b 3e 40 8f 0f 3d 94 31 8c be 9e de 32 be
       0.15205777 0.035048723 -0.27381575 -0.17467734
000010 54 2a 8a be 50 04 2d be c8 b1 8e be 68 23 aa be
       -0.2698542 -0.16896176 -0.2787001 -0.33230138
000020 3d 09 e0 bd 63 fe 85 3e fe 7e 64 be 6a 3d dc 3b
       -0.10939262 0.26170644 -0.22314069 0.0067211883
000030 0a 0b 7c 3e 86 74 22 be 70 9a a7 3d c6 c2 fe bd
       0.24613586 -0.15864763 0.081837535 -0.12439494
000040 6b ff 7f be 13 da 65 3d 22 9b 3a 3e f8 78 81 be
       -0.24999778 0.056116175 0.18223241 -0.25287604
000050 d5 87 8e bd a2 21 3d 3e d9 12 2c be 7b 57 a7 be
       -0.06959502 0.18469861 -0.16804065 -0.3268393
000060 e6 d4 f4 bd 4b 48 86 3e 55 c8 76 3c c4 22 8f bd
       -0.1195467 0.2622703 0.015062411 -0.06989053
000070 fc 4e b5 3d 53 53 cd 3d 00 0f fd 3a e1 98 0a bd
       0.08852956 0.100256585 0.0019306839 -0.033837203
000080 1a 52 83 be da f8 93 be 88 1e 0e be 86 33 95 3e
       -0.25648576 -0.28900796 -0.13878834 0.29140872

obs_nn.bias f4 [4]
000000 dc 22 31 be d6 2d 49 be 22 05 89 3e 4e 8b 69 3e
       -0.17298454 -0.19646391 0.2676173 0.22807047

policy.weight f4 [3, 8]
000000 cb 4c 97 3e 3e eb 3e be 77 81 a6 3e 10 3a a3 bc
       0.29550776 -0.18644425 0.3252065 -0.019925147
000010 f3 90 8e 3e 43 5e 8f 3e 2e 34 11 3e 12 96 fa bd
       0.27844962 0.28001603 0.14180061 -0.12235655
000020 a6 c3 4b 3e 20 54 0d bc b8 78 be bd e9 5c 94 be
       0.19898853 -0.008626014 -0.09300369 -0.28977135
000030 03 28 97 3e 40 44 d5 bc 62 78 85 be 5d da 24 be
       0.29522714 -0.02603352 -0.26068407 -0.16098924
000040 2e e2 24 be 9e 27 0f 3e 7f e5 4b 3e cf c2 99 3d
       -0.16101906 0.13979957 0.19911765 0.0750786
000050 f5 0f 07 3d 01 25 4c be 29 be 49 3d 6e 10 20 be
       0.032974202 -0.19935991 0.049253616 -0.15631267

policy.bias f4 [3]
000000 ce 0e 0b 3e ea 03 1f 3e 92 5e 12 3e
       0.13579866 0.15528837 0.14293888
