test/0.pt (torch_old, 604868 bytes, 6 tensors)

negotiation_nn.weight f4 [4, 12]
00000000: 769c 7dbe 848f 283e 708e 7a3e 4e10 d33d
00000010: cba0 573d 90cf 123e ec63 29bb e37b 243d
00000020: c592 853e 6b44 86be 8b43 10be a392 973c
00000030: 46f0 473d 2ffb 8fbe 9a3a 92be 7129 a83c
00000040: aa3b 67be 319e b53d 098c bf3d 6674 6e3e
00000050: b071 8b3e cb79 a9bd 159e 503e 548c 953c
00000060: 8f82 5fbe bc0f 443e 40f3 56bd e0ab 7cbe
00000070: ff8d 05bb aa52 6f3e c72c 82bd 86e9 453c
00000080: c0ae 01be 0189 143e d7bc 09be 86c4 613d
00000090: 86b6 683d 1fdb 073e fac6 a5bd 5028 cf3d
000000a0: 7ac3 dfbd 9e62 65be c594 6d3e 0ad8 1dbd
000000b0: 1ba6 513e 68f9 383d 31af 73bd 6b6e 453e
-0.24766716 0.16460997 0.24468398 0.10305844 0.05264358 0.14336991 -0.0025846912 0.04015721
0.2608854 -0.26224074 -0.14088266 0.018502539 0.048813127 -0.28121325 -0.28560334 0.020527573
-0.22581354 0.08868063 0.093528815 0.2328659 0.27235174 -0.08275183 0.20372804 0.01825539
-0.21827148 0.19146627 -0.052478075 -0.2467494 -0.0020378826 0.23371378 -0.06356197 0.012079602
-0.12664318 0.14505388 -0.13450943 0.05511906 0.056814693 0.13267182 -0.080945924 0.10115111
-0.10925956 -0.224009 0.23201282 -0.03853611 0.2047352 0.045159727 -0.059493247 0.19280402

negotiation_nn.bias f4 [4]
00000000: 0d29 073e 4cde e3bc c4da 44be f275 8a3e
0.13199253 -0.02781596 -0.19224077 0.2704311

obs_nn.weight f4 [4, 9]
00000000: a3c9 843e 8926 413e 792c 5d3e a14b 423e
00000010: e131 1bbe b7f9 123e b956 7d3e abc5 853c
00000020: 579d bfbd 3749 033e 2635 aebd d852 64bb
00000030: 28d7 953e e3d7 e7bc 362c 8c3e d6cb f0bd
00000040: c155 a3be 5c51 8d3e 4487 69be 64d6 40be
00000050: d0c6 9f3e 6afa 61be 8a71 2a3e 768e 213e
00000060: b2ab 323e 014d 97be d274 e73d c870 fcbd
00000070: c8b9 d83d 935e 1ebe 6210 973e 9db5 97be
00000080: 8867 d03d 509d a23e 6843 773e 6895 293d
0.25935087 0.18862356 0.21598996 0.18974163 -0.15155746 0.14353071 0.24740113 0.016329607
-0.09356182 0.12820898 -0.08506231 -0.0034839418 0.29265714 -0.028301185 0.2737748 -0.117576286
-0.31901363 0.27601135 -0.22805506 -0.18831784 0.3120637 -0.22068182 0.16644874 0.15777001
0.17448309 -0.29550937 0.113015786 -0.12326199 0.1058231 -0.15465765 0.29504687 -0.29630747
0.10175997 0.31760645 0.24146807 0.04140225

obs_nn.bias f4 [4]
00000000: 1e16 9abd 9e84 6fbe 1b44 3b3e 9d22 8e3b
-0.0752375 -0.23390433 0.18287699 0.0043376223

policy.weight f4 [3, 8]
00000000: dae6 0d3e 67d7 15bd 08de 68be a2fa 6ebe
00000010: 78fe e83c 12bb 0cbc 50f0 d13c 5327 a3bd
00000020: 0023 513e 7621 b5be c0af 20be f08b 943d
00000030: 8367 703e 122b 87be ca37 443e ff9c f7bd
00000040: a200 2dbe 69ee 513e 2bc7 f33d 6fdc 62be
00000050: 174a 3abe 6970 843d a56a 2a3e aebe 203e
0.13857594 -0.036582377 -0.22740948 -0.23337796 0.028441653 -0.008589523 0.025627285 -0.07966485
0.20423508 -0.3537709 -0.15692043 0.072532535 0.23476987 -0.26400048 0.19161907 -0.120904915
-0.16894773 0.20501103 0.11903223 -0.22154401 -0.18192326 0.06466753 0.16642244 0.15697739

policy.bias f4 [3]
00000000: a32c 50be d8dd 0d3e ac80 4dbd
-0.20329528 0.13854158 -0.05017154
