test/0.pt (torch_old, 60323 bytes, 4 tensors)

obs_nn.weight f4 [4, 9]
000000 da d8 c4 3d a0 05 02 3e 83 eb a0 3e 3a d0 6b 3e
       0.09611674 0.12697458 0.3142968 0.23028651
000010 b4 7c 9c 3d 90 84 cd bd d4 af 9a bd 84 d2 87 3d
       0.07640973 -0.1003505 -0.07553068 0.066319495
000020 12 fd 4a 3e b0 92 4a be c5 26 51 be 20 df 3a 3e
       0.19823101 -0.1978252 -0.20424946 0.18249178
000030 5d 3a 89 3e 36 25 5c 3e 26 7f 05 be 36 a8 0f 3e
       0.2680234 0.2149857 -0.13036785 0.14029011
000040 08 40 18 3e 60 6c 01 bc 82 b8 e9 bd c8 fa 63 bd
       0.14868176 -0.007899374 -0.11412145 -0.055659086
000050 4a 28 00 3e 70 52 d5 3c cb 27 29 be c3 8b 37 be
       0.12515369 0.026040286 -0.16519086 -0.17924409
000060 ee f9 71 3e 50 54 95 3c 46 56 7a 3e a1 ba c1 3d
       0.23630497 0.01822868 0.24446973 0.09459425
000070 6f b7 a3 be cc 10 32 3e 80 78 53 be f2 3f 44 3e
       -0.31975886 0.1738922 -0.20651436 0.19165018
000080 a6 3a 14 3e 72 17 40 3e 5a f9 5b 3e 38 43 36 bd
       0.14475498 0.18758944 0.21481839 -0.0444977

obs_nn.bias f4 [4]
000000 4d b9 82 3e b8 5a 3c be ab 0d 9a 3e 74 56 4a be
       0.25531998 -0.18393981 0.30088553 -0.19759542

policy.weight f4 [3, 4]
000000 20 75 46 be 82 f5 f7 3e e0 f4 c8 be f3 31 83 be
       -0.19380617 0.48429495 -0.39249325 -0.25624046
000010 5c 4c 96 3e 72 1a ee 3e 22 bf a2 3d 84 f7 bc be
       0.29355133 0.4650455 0.07946612 -0.3690759
000020 60 9d c6 be 72 2a 87 3e 9c 76 bb be 88 55 3f 3e
       -0.38791943 0.2639957 -0.3661393 0.18684971

policy.bias f4 [3]
000000 68 05 80 bd 8a bf 89 be c4 29 e3 be
       -0.06251031 -0.26903945 -0.44367802
