test/1.pt (torch_old, 604251 bytes, 4 tensors)

obs_nn.weight f4 [4, 9]
0.07673069 0.21633808 -0.29547134 0.108835936 0.21583776 0.15572055 0.08267364 -0.22108759
0.16269006 0.2020241 -0.22918893 -0.065848544 -0.05612076 -0.13363174 0.11375811 -0.07031429
-0.059932604 0.2402638 -0.1004166 -0.14853494 -0.18493415 0.12853444 0.11310297 -0.25162274
0.19959709 -0.29195946 -0.17199735 -0.31081876 0.07557836 -0.16425328 0.3088067 0.13562636
-0.028086256 0.21701573 0.21997117 -0.22293432
00000000: fb24 9d3d bb87 5d3e 0548 97be 60e5 de3d
00000010: 9304 5d3e 3575 1f3e cc50 a93d c964 62be
00000020: 3998 263e 68df 4e3e 81b0 6abe 9adb 86bd
00000030: e2de 65bd c2d6 08be 03fa e83d f000 90bd
00000040: e47b 75bd b707 763e 38a7 cdbd 8b19 18be
00000050: 615f 3dbe 889e 033e 88a2 e73d b2d4 80be
00000060: 2e63 4c3e b67b 95be 1320 30be a323 9fbe
00000070: d4c8 9a3d 0332 28be e91b 9e3e a3e1 0a3e
00000080: 2615 e6bc 5f39 5e3e 1f40 613e e548 64be

obs_nn.bias f4 [4]
-0.16406944 -0.021693416 -0.15958774 0.26482883
00000000: d201 28be 64b6 b1bc f86a 23be a597 873e

policy.weight f4 [3, 4]
0.42720658 -0.31990358 -0.35632098 -0.2992815 -0.054240722 0.43625316 0.017243406 -0.19358575
-0.4404839 0.08225003 -0.21246423 0.27685383
00000000: d2ba da3e 67ca a3be b46f b6be 6d3b 99be
00000010: 852b 5ebd 935c df3e 0b42 8d3c 583b 46be
00000020: 1b87 e1be b472 a83d 3990 59be c9bf 8d3e

policy.bias f4 [3]
0.2560805 -0.23709023 -0.3940977
00000000: fc1c 833e c8c7 72be 2cc7 c9be
