test/1.pt (torch_old, 109902 bytes, 4 tensors)

obs_nn.weight f4 [4, 9]
0.13699391 -0.24313343 0.05325818 -0.13996899 -0.21151635 -0.079888195 -0.12161076 -0.07026371
0.07940087 0.21971604 0.16237533 -0.21466252 0.18058887 0.26548955 -0.2900493 0.1754004
0.30915132 0.013318777 0.06397143 -0.27495193 -0.28326017 0.0018075407 -0.028500706 0.04864669
-0.12181997 -0.22922584 -0.13215348 0.14975151 0.005001545 -0.19030444 0.18423781 0.29543343
0.23090282 0.13183114 0.2371138 -0.3287729
00000000: 2248 0c3e f8f7 78be 4025 5a3d 0854 0fbe
00000010: be97 58be 6c9c a3bd 100f f9bd 6ce6 8fbd
00000020: ec9c a23d 3efd 603e b845 263e 7ed0 5bbe
00000030: 4aec 383e 3fee 873e 5881 94be 2a9c 333e
00000040: 1549 9e3e 0037 5a3c 7403 833d 80c6 8cbe
00000050: 7a07 91be 00eb ec3a 507a e9bc c041 473d
00000060: c07c f9bd 2eba 6abe 3e53 07be 7658 193e
00000070: 00e4 a33b 2bdf 42be d6a8 3c3e 0d43 973e
00000080: ca71 6c3e befe 063e f6cd 723e ec54 a8be

obs_nn.bias f4 [4]
0.12041965 0.28684178 0.12353924 -0.054255962
00000000: 949e f63d eddc 923e 2402 fd3d 803b 5ebd

policy.weight f4 [3, 4]
-0.16431117 0.359515 -0.34969866 -0.37623608 0.25418442 -0.25481766 -0.20894831 -0.3201334
0.18136734 -0.10950822 -0.4384092 -0.07282668
00000000: 3041 28be 5a12 b83e b40b b3be 04a2 c0be
00000010: 7624 823e 7677 82be 8cf6 55be 86e8 a3be
00000020: 5cb8 393e d845 e0bd 2c77 e0be 2826 95bd

policy.bias f4 [3]
-0.43751335 -0.005230367 -0.21429622
00000000: c001 e0be 8063 abbb 7870 5bbe
