test/1.pt (torch_old, 60313 bytes, 4 tensors)

obs_nn.weight f4 [4, 9]
-0.08790545 0.12343493 0.18138042 0.2945144 0.26671067 0.104212046 0.16402921 0.28250572
-0.034460157 -0.23648262 0.2800054 -0.22105475 -0.038457662 -0.038653135 -0.087120816 0.22547051
0.15759555 -0.19266042 0.008388926 -0.22103585 -0.011608045 -0.20293097 -0.051980704 0.054944426
-0.22505903 -0.14946365 -0.14745244 -0.11943474 -0.29309645 -0.03172675 0.09126285 0.15252447
0.07540807 0.13626239 0.13371047 0.15525696
00000000: c607 b4bd 74cb fc3d cabb 393e 97ca 963e
00000010: 4d8e 883e 206d d53d 46f7 273e 97a4 903e
00000020: 1826 0dbd 8028 72be de5c 8f3e 2d5c 62be
00000030: c885 1dbd c052 1ebd 666c b2bd bee1 663e
00000040: ba60 213e c648 45be b571 093c 3957 62be
00000050: ab2f 3ebc 23cd 4fbe b8e9 54bd 680d 613d
00000060: e075 66be 000d 19be c6fd 16be 339a f4bd
00000070: bd10 96be e9f3 01bd 04e8 ba3d 602f 1c3e
00000080: 8c6f 9a3d 5e88 0b3e 66eb 083e aefb 1e3e

obs_nn.bias f4 [4]
0.12694877 -0.019565823 0.24117707 0.010968331
00000000: dcfe 013e 8148 a0bc 1ff7 763e 84b4 333c

policy.weight f4 [3, 4]
0.32389677 0.40284386 -0.49595115 -0.05177562 -0.36027938 -0.24164142 -0.04092081 -0.2172341
0.4247274 0.31585592 -0.024363536 -0.33064926
00000000: ccd5 a53e 8d41 ce3e 4fed fdbe ac12 54bd
00000010: 8a76 b8be d970 77be 949c 27bd 9e72 5ebe
00000020: df75 d93e deb7 a13e 0a96 c7bc dc4a a9be

policy.bias f4 [3]
-0.34888425 0.18132956 0.2710825
00000000: f5a0 b2be 75ae 393e 53cb 8a3e
