test/2.pt (torch_old, 60324 bytes, 4 tensors)

obs_nn.weight f4 [4, 9]
000000 0f 53 8d 3c 89 99 c6 3d 41 f5 95 3e d7 78 97 3e
       0.01725152 0.09697253 0.29288676 0.2958438
000010 cf 10 87 be 00 b7 1a be 9d 9b 86 3e 00 4b 61 bd
       -0.2638001 -0.15108871 0.262906 -0.055003166
000020 d0 48 a8 3c 16 4b 4c 3e 90 c9 87 3e 5a 58 2c 3e
       0.020542532 0.19950518 0.26520967 0.16830578
000030 80 a6 5d bb 76 8c f8 bd 02 2c 28 3e c4 20 86 be
       -0.0033821166 -0.12136166 0.16423038 -0.26196873
000040 20 23 07 3e 46 39 2b be b0 78 09 3e 13 f6 aa 3d
       0.13196993 -0.16721067 0.13424945 0.08347716
000050 83 7f fa 3d f2 df 5e 3e 13 8f 90 3e 10 58 e3 bc
       0.12231352 0.21765116 0.28234157 -0.027751952
000060 e1 19 9e 3e 12 60 13 3e b0 70 9f bc e0 21 b7 bd
       0.3087912 0.14392117 -0.019462913 -0.08942008
000070 7c 71 b6 3d 30 c1 80 bd 20 5c ea bd 3c b9 98 3d
       0.08908364 -0.062868476 -0.11443353 0.07457206
000080 6b c3 9b be 06 67 19 be da 59 37 3e 4e 46 3c 3e
       -0.3042253 -0.14980707 0.1790537 0.18386194

obs_nn.bias f4 [4]
000000 1a ea 02 be d8 62 a1 3c 55 0f d2 bb bb 25 0f 3e
       -0.12784615 0.019700453 -0.006410519 0.13979237

policy.weight f4 [3, 4]
000000 c9 91 ac 3e 82 61 83 3e 11 55 b3 bc b6 9d c3 3e
       0.33704975 0.2566033 -0.021891149 0.3820626
000010 de 7c fe be 60 e7 b4 bd 04 ad c5 3e 4f b4 1c bd
       -0.4970464 -0.08833194 0.38608563 -0.038257893
000020 88 8d 4b be 37 93 bd be 75 e6 89 be 67 de 90 be
       -0.19878209 -0.3702638 -0.26933637 -0.2829468

policy.bias f4 [3]
000000 50 2c 33 3c 1c b9 ed 3e ee 71 05 3e
       0.010935858 0.4643029 0.13031742
