test/2.pt (torch_old, 110907 bytes, 4 tensors)

obs_nn.weight f4 [4, 9]
0	0x3dc84be4	0.097801
1	0x3e84bae9	0.2592385
2	0x3ea4c0c7	0.32178327
3	0x3e599b8e	0.21250746
4	0x3ea087d1	0.3135362
5	0xbe7b0420	-0.24513292
6	0xbe62ec28	-0.22160399
7	0xbe7c8c5e	-0.24662921
8	0x3e7fde15	0.24987061
9	0x3dc3addc	0.095546454
10	0x3d5da3c8	0.054111272
11	0xbdf9d83e	-0.12199448
12	0xbe78de4b	-0.24303548
13	0xbe914021	-0.2836924
14	0x3eaa7d7d	0.33298865
15	0xbc6236a0	-0.013806969
16	0x3d569f78	0.052398175
17	0x3da95ec2	0.08270027
18	0x3cda7e90	0.026671678
19	0xbe113833	-0.14181595
20	0x3cb0c8c8	0.021580115
21	0xbd756aa0	-0.05991614
22	0x3d1691b4	0.036760047
23	0xbe983d86	-0.2973444
24	0x3e9b3b15	0.30318514
25	0xbe42b3e0	-0.1901393
26	0x3e5387cd	0.20657273
27	0xbe8fb35c	-0.28066528
28	0xbde5f140	-0.112276554
29	0xbd72f7b1	-0.05931825
30	0x3e88cac1	0.2671719
31	0x3e237ff9	0.15966786
32	0xbdd36a90	-0.103230596
33	0xbe9a5b94	-0.30147994
34	0xbd39dc58	-0.04537615
35	0xbcd0a300	-0.02546835

obs_nn.bias f4 [4]
0	0xbe0decd4	-0.13859874
1	0xbe9c10f0	-0.30481672
2	0x3d63fde5	0.055662055
3	0x3dedb350	0.11606467

policy.weight f4 [3, 4]
0	0xbeb3483a	-0.35016042
1	0xbe8a1084	-0.26965725
2	0x3e4cba18	0.19992864
3	0xbea45496	-0.32095784
4	0x3e8769f6	0.2644803
5	0x3e8c0430	0.27346945
6	0x3c2b1ec0	0.010444343
7	0xbd925b80	-0.071463585
8	0xbe0faa07	-0.14029704
9	0x3eda09ac	0.42585504
10	0x3e4b2bcd	0.19840927
11	0xbe761a26	-0.24033412

policy.bias f4 [3]
0	0x3d74a640	0.05972886
1	0xbed2908e	-0.4112591
2	0x3ea63e93	0.32469615
