test/2.pt (torch_old, 604187 bytes, 4 tensors)

obs_nn.weight f4 [4, 9]
-0.059503097 -0.106242314 0.022193046 0.06475034 -0.1884226 -0.2704939 -0.2548987 0.31211755
-0.15084672 -0.28605324 -0.115511686 0.3069193 0.004849196 -0.21004875 0.32346782 0.04458495
-0.11521955 -0.16738768 -0.0058465884 0.30498797 0.026645005 -0.098580584 0.023921192 -0.1769117
0.15871505 0.091753736 0.29330826 -0.014618885 0.1243586 0.15864938 0.10762524 -0.07274798
-0.2041435 0.25729814 -0.24481982 0.021638466
00000000: 85b9 73bd 9295 d9bd 31ce b53c d49b 843d
00000010: dbf1 40be 2d7e 8abe 1582 82be dfcd 9f3e
00000020: 9077 1abe 9275 92be 6491 ecbd 8724 9d3e
00000030: 01e6 9e3b 0517 57be 939d a53e b59e 363d
00000040: 3af8 ebbd ad67 2bbe bd94 bfbb 6227 9c3e
00000050: a046 da3c 9ee4 c9bd 60f6 c33c 5728 35be
00000060: 3386 223e 62e9 bb3d 802c 963e 0c84 6fbc
00000070: b9af fe3d fc74 223e 9f6a dc3d e5fc 94bd
00000080: fe0a 51be 95bc 833e 0cb2 7abe 2743 b13c

obs_nn.bias f4 [4]
0.023209007 0.06602515 -0.07802151 0.13932925
00000000: d120 be3c 3238 873d bec9 9fbd 54ac 0e3e

policy.weight f4 [3, 4]
0.14374104 -0.025390211 0.24686898 -0.13382496 -0.39781445 -0.30973125 -0.16232213 -0.034804367
-0.38068983 0.45192888 0.32464522 0.4308604
00000000: da30 133e 22ff cfbc 39cb 7c3e 6909 09be
00000010: 56ae cbbe 1895 9ebe c637 26be 068f 0ebd
00000020: c7e9 c2be 3963 e73e e637 a63e bc99 dc3e

policy.bias f4 [3]
0.29871628 0.44421342 0.18423505
00000000: 57f1 983e f16f e33e 1da8 3c3e
